calibration/result/Camera parameters.npz (npz, 1672 bytes, 4 tensors)

mtx f8 [3, 3]
00000000: eb41 34fd 259b 8740 0000 0000 0000 0000
00000010: 1a6d 69ff 4586 7f40 0000 0000 0000 0000
00000020: 13d5 28f5 5291 8740 9459 2b29 b13a 7740
00000030: 0000 0000 0000 0000 0000 0000 0000 0000
00000040: 0000 0000 0000 f03f
755.3935493548028 0.0 504.3920892828188 0.0 754.1655066671395 371.668252152763 0.0 0.0
1.0

dist f8 [1, 5]
00000000: ddc1 416f 432b d23f cee1 34e7 ba8a fabf
00000010: 477b 7834 ca04 403f 352f 7a7c 0c6c 3cbf
00000020: 5fce a0ec b2c7 0a40
0.2838905893795792 -1.6588696509844456 0.0004888522461817612 -0.00043368630256489525 3.347509239823736

rvecs f8 [12, 3, 1]
00000000: 60a6 9c51 dab6 e33f e789 e535 926d d43f
00000010: 9579 b7e9 3373 08c0 12c1 6268 0ac2 ab3f
00000020: eb71 f0c3 deb4 d6bf 35a9 d4d3 87dd 0840
00000030: 948a 6d9e d732 e43f 6bc6 ca3a 020d e1bf
00000040: 99b7 fa95 672e 0840 2930 87a5 8236 82bf
00000050: 5fb8 282c 571b d43f c9cd fe92 0ce1 08c0
00000060: 95d2 839f a38b a4bf d313 2700 ec2d c23f
00000070: 40c8 0cfb fa0e 0940 e6de 062b ecda aa3f
00000080: 2caf da77 decd eb3f 237a f38e 6afa 07c0
00000090: 972e 9599 d4b2 e9bf 4eca 7691 3c6d e4bf
000000a0: 9cd3 5d73 51b5 0740 b2c5 9e07 c5c6 e9bf
000000b0: 6aeb 543c 6c6e e23f 5df6 6d30 1f5a 07c0
000000c0: 7c5d 7959 04f1 e13f 9caf 6a45 4d0e b9bf
000000d0: 1c9c 68f2 141a 0840 c3b3 e28c 8931 a5bf
000000e0: 68ef 9f12 306f d2bf 7546 d787 d2f6 0840
000000f0: 3db3 9c76 ba1d bb3f ea5d e4cb 02e1 ef3f
00000100: a534 cf51 9095 07c0 4899 9f9f 0ed4 efbf
00000110: d5e2 08da 085f acbf 9014 2c3e 8fd0 0740
0.6160708993895234 0.31918769133895214 -3.0562513598553758 0.05421478771438805 -0.3547894395321964 3.1081692265771843 0.6312063307089653 -0.5328379772456179
3.022658511842519 -0.008893032719150611 0.31416873276146434 -3.109887264634129 -0.04012786218837509 0.14202642447904043 3.1323146451259447 0.052451496364879266
0.8688804951575313 -2.997273556523639 -0.8030798911726887 -0.6383345452398517 2.96353426103674 -0.8055138729889022 0.5759793451646662 -2.9190048011358116
0.560671019319599 -0.09787447876686745 3.0127352655577067 -0.04139356465143564 -0.288036363781194 3.120518742806605 0.10592236896327463 0.9962171537653692
-2.9480291739806312 -0.9946358792920273 -0.05541255628162892 2.9768357140733954

tvecs f8 [12, 3, 1]
00000000: 1712 8688 1f2d 1240 19d5 1392 bec3 0640
00000010: 16fc 18d1 b4fb 3540 c9d2 299c 0b50 1140
00000020: 82c7 f83e 2585 0040 3552 d6db 5786 3140
00000030: 51cb dee4 2851 1340 955c 3194 af49 1140
00000040: fcb7 d8b9 2e0c 3040 b74f 858f 44ac 1540
00000050: d14f a93b 0b88 1140 35fb bc55 e27e 3540
00000060: 4f9c 6422 818f 1540 3606 5afd d4e3 fb3f
00000070: 660b 6044 6d7f 3140 1296 9ed3 b88a 1640
00000080: c3bd 6ece 29ea 0640 7602 9b60 9712 3540
00000090: eb39 7a44 bcdf 1340 0a88 ac3d 21e9 0f40
000000a0: cb59 df91 499f 3840 51cc 42bb 47f8 0f40
000000b0: 1b4f fd9f 0fd0 1640 d75c 3bea 43b3 3040
000000c0: 981e 4ba0 0078 1540 1fc9 80af 3b1f 0b40
000000d0: 9edf a2f3 bccb 3440 d1f1 bc36 5790 1440
000000e0: f9a3 1bd3 fc27 0a40 3536 4792 3c68 2d40
000000f0: 245f 91fd 60e7 1840 2800 2890 8c1c 0c40
00000100: 2ddc a2f8 4588 3940 e65f 21c0 d33d 0840
00000110: 0afe 2842 c609 0140 1c36 7187 4fa0 3740
4.5440656024770965 2.8455783283522007 21.983227795219214 4.328169288685509 2.0650124473258424 17.524778117966168 4.829257560823707 4.321958842766567
16.04758798161491 5.418230288039857 4.382855350693675 21.495641096723563 5.390141045943053 1.743123044638549 17.497761033485766 5.635470682672819
2.864337551836543 21.072622335285324 4.968491620979402 3.988832933261624 24.622216336277955 3.996230566955582 5.703184604488139 16.70025505017551
5.367189888558322 3.3902505599190955 20.795851924194373 5.140957694322837 3.2695251934824197 14.703587123101082 6.225955926893025 3.5139399778563707
25.53231767631603 3.030189038294327 2.1297726792106504 23.626213517322057
